{
  "result_tag": "composed_v1",
  "ligand": "ZN",
  "embedder": "ESM",
  "model_to_string": "first Sequential(\n  (0): Linear(in_features=2560, out_features=256, bias=True)\n  (1): ReLU()\n  (2): Linear(in_features=256, out_features=128, bias=True)\n  (3): ReLU()\n  (4): Linear(in_features=128, out_features=128, bias=True)\n  (5): ReLU()\n  (6): Linear(in_features=128, out_features=32, bias=True)\n  (7): ReLU()\n  (8): Linear(in_features=32, out_features=1, bias=True)\n  (9): Sigmoid()\n); second Sequential(\n  (0): Linear(in_features=6, out_features=256, bias=True)\n  (1): ReLU()\n  (2): Linear(in_features=256, out_features=128, bias=True)\n  (3): ReLU()\n  (4): Linear(in_features=128, out_features=128, bias=True)\n  (5): ReLU()\n  (6): Linear(in_features=128, out_features=32, bias=True)\n  (7): ReLU()\n  (8): Linear(in_features=32, out_features=1, bias=True)\n  (9): Sigmoid()\n)",
  "batch_size": 1000,
  "total_epochs": "first: 20, second: 120",
  "seed": 42,
  "learning_rate": "first: 0.01, second: 0.01",
  "hidden_layers": [
    256,
    128,
    128,
    32,
    "compose",
    256,
    128,
    128,
    32
  ],
  "all_stats": [
    {
      "epochs": 0,
      "acc": 98.9382757938191,
      "mcc": 0.0
    },
…
